trained_models/QSPR_qspr_best.pth (torch, 7566 bytes, 5 tensors)

mlp.0.weight f4 [16, 56]
00000000: f95d 323e 360a c7bc c789 ad3d 4adf f5bd
00000010: c0a2 fa3d 92c3 6ebd a549 503b 6265 953d
00000020: e334 a03e 426d 72bd d666 f1bd 234d 17be
00000030: 82eb 903d e65f e1bc c406 13be d7f3 02be
00000040: b6e2 40bd 0c3f f83d 72ce 53bd 9789 e93c
00000050: 6ada aabd 49e4 dfbd beff efbc 0dae 91bd
00000060: d67f 03bc 152c 0abd 5164 2b3e f145 c03d
00000070: bf45 653d 540a 35bc 8c4e b23c a58f 7abd
00000080: 4754 b53c 42aa 93bd 6876 05be aa52 08bc
00000090: 9dc9 1bbe 4f55 be3e a000 2f3d 9bbc 95bc
000000a0: c52c 283e 91db 9a3d d773 6d3d e196 43be
000000b0: 0fd4 933b 30b4 c03c a5cf 603d 70dd 17bd
000000c0: aad7 66bd 172f 693e de93 dd3b f5e2 b43d
000000d0: 1de4 4bbe f40f d53d 30b6 893d 7c45 24bd
000000e0: 9c53 493d ecdf aa3d 6e44 08bd ff7d 3a3d
000000f0: def1 cbbd 8e5d 133e 969d dcbc ae95 8dbd
00000100: 6fba f9bd e767 0d3b aa45 24bc 0e9d fcbd
00000110: 9980 88b9 d0d4 d0bc 04db bc3d ac63 4abd
00000120: ad73 723d ab4c 913d aaa6 35bc 03e2 e2bd
00000130: 5b0a cabd fae9 d83d c7fa 77bd ef2e 77bd
00000140: 6e97 243c 2134 ecbc 864a 62bc 545b 933d
00000150: 16e4 36be 6305 ccbd 27db c7bd 9ae0 22bc
00000160: 97a4 1c3e 8288 273b b1b7 0ebc 991e c13c
00000170: 5edf 8c3d d16d 5e3c 5f99 283e 1a50 89bd
00000180: 8db9 d53d 78e4 003d 6ebb 36bd 3320 a8bc
00000190: 640f 80bc 7929 ee3a 737e c3bd 76f8 88bd
000001a0: 4aa4 153e 5480 5cbe 9630 c43d 9859 903d
000001b0: e71c 023e 8f67 89bd fa0f 9bbd b90d ac3c
000001c0: 90b3 67bd ecbe 41be 728c ff3d f78f e93c
000001d0: a5d8 b63d fc99 09be ed95 85bd b564 263c
000001e0: ec75 27be 4ed1 6ebc b179 14be a3e6 d7bc
000001f0: 12fb 10be cfb1 043e 10e5 c83c 182d acbd
00000200: 2f25 303d 0479 883d b929 723d 9928 acbd
00000210: 6440 8b3e 6ae7 07be bb74 aa3d bb35 ad3c
00000220: cf16 6b3d 4a2f 97bd 621d da3d 5d84 5e3e
00000230: 20a7 b9bd b06e 88bc 1e37 6ebd d002 4e3d
00000240: 0c10 063c 2294 763d 08b9 07bc 6dc8 153e
00000250: 5267 78bb edc3 4cbd 8777 0dbe 8674 84bd
00000260: 82cf 953b 4e2f cd3c 9c62 43bc d944 d53c
00000270: 83fa 323d 0e43 953c 7408 92bd eaf0 c3bd
00000280: aa08 5dbd 0897 073e f4a8 6c3b 426b 8dbd
00000290: 40d4 fcbc ae23 d8bd e251 dcbd 5c83 c7bc
000002a0: d9ea ad3d a3d4 08be 1109 34be aadf 58be
000002b0: e4a4 1abe 3d9d 143d bd69 843d a529 f43d
000002c0: 338c 65be c1d9 4bbd a319 c6bc 7730 ef3d
000002d0: eeec 30be d377 57bd 268f b5bd 2b63 d33d
000002e0: 50f6 1c3d 6323 d33d 344b e2bd 0b87 c93b
000002f0: 2eab 65bd 2257 dabc e429 893d 4b63 3d3a
00000300: 3850 11be d52f b63d ca97 eebb 8620 15be
00000310: b425 1d3e 1b49 1cbe e012 25bd 2dc1 33bd
00000320: cbcf b3bc aa22 b9bd fd32 d2bd 0e3c a73c
00000330: e804 233e f70c f83d 4ee2 ce3d 2686 353d
00000340: f6d0 cbbd e7a5 89bd 0381 8fbd 276a 05be
00000350: 62d4 b6bd b367 fa3b 4de5 a6bd c0c7 8abd
00000360: fb36 0abd ee91 0e3e 48c3 ff3c 76f9 32bd
00000370: 18a4 563e 6d9a 14be 2577 083d 4690 f2bd
00000380: d3a2 c43d 8319 febd 997e 0ebd 8497 2c3e
00000390: 5998 273d 5411 18be d983 01bd 78ba aabc
000003a0: f6b2 82bd 0138 723c 2131 9fbd 088f ea3d
000003b0: f177 e0bc 2cb4 91bd a39a 8abc 2bbe 803b
000003c0: 4bdf 18be 4a1f e6bc d57e b0bc b329 153d
000003d0: 116c f0bc 08a4 2e3d 9b97 21bd b694 9cbd
000003e0: 8e38 403c 61d2 2c3e 6c1f 83bd 7140 133d
000003f0: 63bd 073e fbf6 d93d 6b10 bd3d 0b7c 83bd
0.1741866 -0.024296861 0.084735446 -0.1200548 0.12238073 -0.05829198 0.0031782177 0.07294728
0.3129035 -0.059186228 -0.117871925 -0.14775519 0.070761696 -0.027511548 -0.1435805 -0.1278833
-0.04709121 0.121214 -0.051710553 0.02850799 -0.083424404 -0.10932214 -0.029296752 -0.07113276
-0.008026084 -0.033733446 0.16737486 0.0938834 0.05597472 -0.011049826 0.02176597 -0.061172146
0.022134913 -0.072102085 -0.1303345 -0.00832049 -0.15213628 0.3717446 0.042725205 -0.01827841
0.16423328 0.0756141 0.0579718 -0.19100524 0.0045113633 0.02352342 0.054885525 -0.037076414
-0.056358017 0.2277187 0.006762012 0.08832351 -0.19911237 0.104034334 0.06724203 -0.040105328
0.049152 0.08343491 -0.033268385 0.045530315 -0.09958242 0.14391157 -0.026930612 -0.06913315
-0.121937625 0.0021576823 -0.010026375 -0.12334643 -0.00026035754 -0.025492102 0.092214614 -0.04941146
0.05919235 0.070947014 -0.011087099 -0.110782646 -0.098652564 0.105915025 -0.060541894 -0.060347494
0.010045869 -0.02883345 -0.013811713 0.07195154 -0.17860445 -0.09961965 -0.09758597 -0.0099412445
0.15297161 0.0025563543 -0.008710788 0.02357416 0.068785414 0.013575987 0.16464756 -0.06704731
0.10435782 0.031467885 -0.04461234 -0.020523166 -0.015632339 0.0018170319 -0.09545603 -0.06688015
0.14613453 -0.21533328 0.095795795 0.07048339 0.12706338 -0.06709205 -0.07571407 0.021002637
-0.05656773 -0.18920487 0.1247796 0.02851103 0.089280404 -0.13437647 -0.06522737 0.010155846
-0.16353577 -0.014576269 -0.14499547 -0.026355093 -0.14158276 0.12958454 0.024523288 -0.084070385
0.04300421 0.06663707 0.05912182 -0.08406181 0.27197564 -0.13271871 0.08323046 0.021143785
0.0573948 -0.073820665 0.106501356 0.2173018 -0.0906508 -0.016654342 -0.058158033 0.05029565
0.008182537 0.060199864 -0.008283861 0.14627238 -0.003790338 -0.049991537 -0.13815127 -0.064675376
0.004571856 0.02504697 -0.011925366 0.026033806 0.043695938 0.01822045 -0.071305186 -0.09567435
-0.05396334 0.13241208 0.0036111446 -0.069052234 -0.030862927 -0.1055368 -0.107578054 -0.02435463
0.08492059 -0.13362364 -0.17581584 -0.21179071 -0.15101963 0.036282767 0.064654805 0.119220056
-0.22416763 -0.049768213 -0.024182146 0.11679166 -0.17277882 -0.052604508 -0.08865194 0.10321649
0.03832084 0.10309484 -0.110495 0.0061501316 -0.056071453 -0.026652876 0.06697443 0.00072245736
-0.14190757 0.08895842 -0.0072812783 -0.14563188 0.15346414 -0.15262263 -0.040301204 -0.0438854
-0.02194967 -0.09039815 -0.102636315 0.020414378 0.1591984 0.12111848 0.10101758 0.044317387
-0.099519655 -0.067210965 -0.07007029 -0.13028775 -0.089272276 0.0076417564 -0.081492044 -0.067763805
-0.03374384 0.13922855 0.031221047 -0.043694936 0.20961034 -0.14512034 0.03331675 -0.11843924
0.09601369 -0.1240721 -0.0347887 0.16854674 0.040916774 -0.1485036 -0.03161988 -0.020840868
-0.0638179 0.01478386 -0.077730425 0.11453062 -0.027400943 -0.07114443 -0.01691944 0.00392892
-0.1492893 -0.028091092 -0.021544853 0.03641672 -0.029348405 0.0426369 -0.039451223 -0.07645552
0.011732234 0.16877128 -0.064024776 0.035950128 0.13255839 0.10642811 0.09231647 -0.06420144

mlp.0.bias f4 [16]
00000000: 84fe 26bb 8d11 263c 43e8 33ba 71d5 673c
00000010: a0ae e3bb f588 5ebc 0000 0000 2181 9c3c
00000020: ece3 0fbc 2898 86bb 69f4 5cbb aed3 443c
00000030: e295 07bc 1236 29bc 2d5f f2bb 91ae a53a
-0.0025481293 0.01013602 -0.0006862918 0.0141500095 -0.006948307 -0.013582458 0.0 0.019104542
-0.008782368 -0.004107494 -0.0033715016 0.012013359 -0.008275481 -0.010327833 -0.0073965997 0.0012640526

mlp.2.weight f4 [16, 16]
00000000: 1dac 1e3e 0ad1 7f3b 04e7 63bd b223 28bd
00000010: 34ac 0e3e 1aca 593c 6544 5fbe b0d3 a3bd
00000020: a8e7 1c3e 31be f03b 171e 093e d79f 97bd
00000030: b0a0 7bbd 9f4f bc3d 416d 033e 1a71 83be
00000040: 8202 f5bc fa5d 293d e7c2 58bd 459b d53d
00000050: 03d3 24be 3ae7 343b 33c9 313e 4588 433e
00000060: c5e7 36bd 7fcf b13d b503 83bd 4fd6 933d
00000070: 2f91 0a3e b5f8 923d 5afb 9b3d b892 303c
00000080: 39b4 783e 0acd 30be 7695 92bd 22ab 70bd
00000090: 15d5 f23c a114 4ebd bf1d 82bd 241c a53d
000000a0: a0b4 6ebd 935f 03be 9beb cabc ed02 ba3d
000000b0: 1143 103d 4588 793c cde7 06be 03f0 753c
000000c0: 7005 7b3d 889e dcbd c117 553d 67e3 d63c
000000d0: a75d 183d 03d7 df3b 6d13 ffb8 7356 debd
000000e0: 6472 413c e403 fb3d 2274 91bd 8ab9 8d3e
000000f0: 5f4c 043e 32dc 4a3d 9b56 c33c 189a 8d3d
00000100: 8253 033e cb94 8ebd 7182 00be ea3e 31bd
00000110: 228c f7bd 0751 35be 2b0f f1bd 59ad 96bc
00000120: 71cf c5bd 3239 2bbd f4d8 22be 6934 963e
00000130: 439a b13d ae86 443d 459c 85bc 5f39 a7bd
00000140: 865f 873d d26d 9dbd c65f 773d ec88 14be
00000150: f97c 22bd a2ca 5a3d 177a 843c 52de 31bc
00000160: 508d 1f3e f38a 2fbd 941e 1d3d 575c bb3a
00000170: 2b20 733d 06fc d83c 3a50 05bd d2ea 143d
00000180: e293 623d aafd 0d3e 9dd7 0e3c 56bf 4d3e
00000190: bca2 023e 5cce 09bd 7dd0 f63d 3b36 9d3d
000001a0: a901 0c3c e66f 953d 836a e7bd be61 e83d
000001b0: f384 ed3d 38c2 203b a5a7 843d 331f c7bd
000001c0: e6d5 acbc 9d1c dfba 7531 ce3d fb3b 93bd
000001d0: a21b 133d 0ffd 1d3d c350 e03d 26d7 3cbd
000001e0: 7425 ed3c d675 44bc d28f 463d 77f0 833d
000001f0: edcb 2c3d 5075 f63c b80d 8a3d 6d7c ba3d
00000200: 5aab a83d ac19 543d 345f 9d3c 2b08 2cbd
00000210: bf6d acbd 930a 6cbd 7524 0cbe 1d74 cf3c
00000220: ee24 1bbe 7545 cf3d 6ceb a7bd 6b64 82bd
00000230: 001c 8ebd 53af 113e 2492 1bbd 7451 9ebd
00000240: 3221 2fbd 8793 26bd b4d3 923e ffde a4bc
00000250: ada1 cf3d b25b 023e e7c4 b93d 3668 c2bc
00000260: e164 bdbd ae39 3ebc ec2d 6ebd 558e 013d
00000270: a3fb 003d 25a2 b33b 350d 833d 4eea 24bc
00000280: 830a bc3d 9e24 383d 35f6 293e 3e64 993d
00000290: aba6 97bd f21b ebbd fff5 86bd 4d67 a73c
000002a0: 3fa5 9cbc d10f 09bd 17e5 913d 5be6 373e
000002b0: 9684 bcbd 33cf cfbb 0c47 2abe 387d 36be
000002c0: 9f74 edbc b3d1 bfbd 245a 453c e612 333e
000002d0: a559 3ebc e696 91bb 4f4a 9f3d 81d3 0ebe
000002e0: 75c1 2a3e 1a59 18be 19aa 1c3e b441 22bd
000002f0: e736 b23c 7652 213c 2fbf 533c 7832 213e
00000300: 708a 943d 4877 9fbb 7a4c 833d 0c7f 783e
00000310: 3216 803d 9c72 aabd 215a 893d b297 2abe
00000320: 4ec3 fd3d eb26 153e 0d38 e4bb 6f0d bc3d
00000330: 3dfb f03c 25f2 8f3d 4f46 693d 61db dbbd
00000340: 4ce3 87bc 835b a2bd da32 223e 46a0 47bc
00000350: 75f5 3a3d 9edf ef3c b3ee a5bd 7314 07be
00000360: f2fd 2f3c 1cad 2d3d 4ede e4bd 7252 6fbd
00000370: 2e3b 663e 5793 813d e1bb 383d 0994 493d
00000380: 007b 733d dd92 6bbd 7382 283e 3ad3 94bc
00000390: ec6a e8bd cbd8 3b3e 576d 88bd 0cc9 ca3d
000003a0: 95a5 873e 300b 3f3e 7b67 acbd 7a87 2abe
000003b0: 4558 87bd 00b4 54be e58d a2bd aa97 203e
000003c0: 0a52 123d f622 823d 516f e13c 9f38 603d
000003d0: 11b6 b63d 94d7 56be 701e ecbc 5017 d13b
000003e0: a572 273d 2ab1 5fbe 8d78 60bb fddf 01bd
000003f0: 2110 c33d bcb5 40be cbc5 4a3d 4306 dc3b
0.15495344 0.003903451 -0.055640236 -0.041049667 0.13932878 0.013292814 -0.21803434 -0.079993606
0.15322745 0.0073468913 0.13390385 -0.07403534 -0.06143254 0.09194874 0.12834646 -0.25672227
-0.029908422 0.04134939 -0.05292025 0.10430006 -0.1609612 0.0027603642 0.17361908 0.19094951
-0.044654626 0.08682155 -0.063971914 0.072186105 0.13531946 0.07176343 0.07616301 0.010777168
0.242875 -0.17265716 -0.07157414 -0.058756955 0.029642621 -0.050312642 -0.0635333 0.08062008
-0.058277726 -0.12829427 -0.024770549 0.09082589 0.03522021 0.015230243 -0.13174362 0.0150108365
0.061284482 -0.10772425 0.052024607 0.02623148 0.03719869 0.0068310513 -0.00012162966 -0.10856333
0.011807058 0.122566015 -0.07102229 0.27680618 0.12919758 0.0495264 0.023845008 0.06914157
0.12824824 -0.06961974 -0.1254976 -0.04327289 -0.12087275 -0.1770669 -0.11770471 -0.018393205
-0.09658707 -0.041802593 -0.15903074 0.2933686 0.08672001 0.047980003 -0.016309867 -0.081652395
0.066100165 -0.07686962 0.06039407 -0.14505357 -0.039669964 0.053415902 0.016171498 -0.010856228
0.1558125 -0.04285712 0.03835924 0.0014294487 0.05935685 0.026487362 -0.032547213 0.036356755
0.055316813 0.13866296 0.008718398 0.2009252 0.1275739 -0.033644065 0.12051485 0.07676359
0.008545318 0.072967336 -0.112996124 0.11346768 0.11597624 0.0024529826 0.06477288 -0.09722748
-0.021098088 -0.0017022077 0.10068027 -0.07189175 0.035915025 0.038571414 0.10952904 -0.04610362
0.028948523 -0.011990985 0.048477 0.064423494 0.042186666 0.030085236 0.06740898 0.091057636
0.08235808 0.051782295 0.019210435 -0.041999977 -0.0841937 -0.05762727 -0.13685782 0.025323922
-0.15150806 0.1012067 -0.081992 -0.063668095 -0.06938934 0.14227037 -0.037981167 -0.0773038
-0.042756267 -0.040668037 0.28677142 -0.020125864 0.10138259 0.12730291 0.09070759 -0.023731332
-0.09247757 -0.011610432 -0.058149263 0.03162988 0.03148998 0.0054819756 0.063990034 -0.010065628
0.091816925 0.044956796 0.16597827 0.07489823 -0.07404836 -0.114799395 -0.06589889 0.020435
-0.019121764 -0.03346235 0.071237735 0.17958967 -0.09204976 -0.0063418387 -0.16628665 -0.17821205
-0.028986273 -0.09366169 0.012045417 0.17487678 -0.011618053 -0.0044430373 0.07777845 -0.1394787
0.1667536 -0.1487774 0.15299262 -0.03961344 0.021754695 0.00984632 0.012924 0.15741909
0.07252967 -0.0048665144 0.06411071 0.24267215 0.062542334 -0.08322641 0.06706644 -0.1665943
0.12390767 0.14565627 -0.0069646896 0.0918225 0.029416675 0.07028607 0.056951817 -0.107352026
-0.016587876 -0.07927611 0.15839711 -0.012184208 0.045644242 0.029281434 -0.08102169 -0.13191395
0.010741698 0.042401418 -0.11175214 -0.058428235 0.22483513 0.06326931 0.04510105 0.049213443
0.059443474 -0.057513107 0.16456012 -0.018167127 -0.11348519 0.18344419 -0.0666148 0.09901628
0.26493517 0.18656611 -0.08418175 -0.16653243 -0.06608633 -0.2077179 -0.079372205 0.15682855
0.03572277 0.063543245 0.0275189 0.054741498 0.08921445 -0.20980674 -0.028823107 0.006380953
0.040880818 -0.21844926 -0.0034251541 -0.031707752 0.09524561 -0.18819326 0.049505036 0.0067146136

mlp.2.bias f4 [16]
00000000: 3071 29bc b063 2a3c ad94 473c 8f64 2bbc
00000010: ee80 0ebc 5a74 56bc fa9b 393c 395b 373c
00000020: d560 8cbb 7f04 2cbc 9880 32bb 4df9 253c
00000030: fdf8 323c dba0 1bbc 5c09 cebb 8a8a 573c
-0.010341927 0.010399744 0.012181443 -0.010460987 -0.008697731 -0.013089264 0.011328692 0.011191183
-0.004284004 -0.010499119 -0.0027237292 0.010130239 0.010923621 -0.0094988 -0.006287737 0.013155589

mlp.4.weight f4 [1, 16]
00000000: 9fa4 933d 875f 9abd 8114 afbd 630f d83c
00000010: 24a1 873d 9d9d 883d ed7f 92bc e15c 18be
00000020: 97a8 61ba d7a9 0f3d 076d 3c3e 4442 55ba
00000030: 2e93 02bd 0d45 173e c1ca 823d 0823 92bd
0.07209133 -0.07537752 -0.08548833 0.026374524 0.06622532 0.06670687 -0.017883265 -0.1487918
-0.00086081907 0.03507408 0.18400966 -0.00081351795 -0.031878643 0.14772435 0.063863285 -0.07135588
